models/best_model_trab4.pt (torch, 13471 bytes, 5 tensors)

lstm.weight_ih_l0 f4 [100, 1]
0.12077926 0.28500623 0.18204679 -0.71790797 -0.30669674 -0.1504395 -1.0847534 0.4882998
-0.86616045 -0.11403263 0.2584822 0.28247198 -0.81765884 -0.9713111 -0.13087448 -1.3355551
-0.27163678 -0.21363708 0.52451247 0.8378315 0.33463475 0.08571136 -0.18726948 -1.0778615
-0.23226129 -0.5224973 -0.15224865 -0.058455415 -0.4307913 -0.19338386 -0.44886625 -0.7806261
0.21211864 -0.5981199 -0.6140548 -0.25033745 0.11715588 -0.6736644 -0.34263194 -0.9203246
-0.6930381 -0.6868229 -0.14274926 0.45027488 0.3519102 0.4950974 -0.4808149 -0.46749836
-0.34844202 -0.08618731 -0.27733335 -0.36705118 -0.70563763 0.26830572 0.4007575 0.6422353
-0.3601969 0.5619386 -0.074722655 -0.72077364 0.51568997 0.5123137 0.24754547 -0.37339666
0.76383954 -0.1941749 -0.492035 -0.34228322 -0.61360043 -0.7934267 0.66156006 0.29559907
-0.2289015 -0.3157369 -0.39065364 0.19421276 0.36589405 0.398211 -0.8343233 -0.277226
0.050181936 -1.3268794 0.5126195 -0.6190008 0.026722498 0.18300444 0.2702619 -0.7716097
-1.1580037 -0.044895817 -1.0403519 -0.49879646 -0.04096083 0.5946038 0.9763023 0.360655
0.038613744 -0.08715451 -1.0202011 -0.23428437
00000000: 1e5b f73d 56ec 913e 796a 3a3e d1c8 37bf
00000010: 5b07 9dbe d00c 1abe 33d9 8abf 6e02 fa3e
00000020: b1bc 5dbf f189 e9bd c757 843e 2ba0 903e
00000030: 1752 51bf d8a7 78bf f603 06be 78f3 aabf
00000040: fa13 8bbe aec3 5abe 7346 063f 207c 563f
00000050: 3f55 ab3e 7089 af3d 92c3 3fbe 5ef7 89bf
00000060: e7d5 6dbe 62c2 05bf 12e7 1bbe f26e 6fbd
00000070: ad90 dcbe 6b06 46be ccd1 e5be 1dd7 47bf
00000080: a135 593e 631e 19bf b232 1dbf 3b2c 80be
00000090: 6cef ef3d 4575 2cbf 746d afbe 659a 6bbf
000000a0: f26a 31bf a0d3 2fbf dd2c 12be 6e8a e63e
000000b0: 932d b43e 687d fd3e 5f2d f6be f25b efbe
000000c0: fe66 b2be f982 b0bd a3fe 8dbe 22ee bbbe
000000d0: aba4 34bf 5e5f 893e 1630 cd3e 8869 243f
000000e0: ba6b b8be 35db 0f3f 3108 99bd 9f84 38bf
000000f0: 4204 043f fe26 033f 8f7c 7d3e d92d bfbe
00000100: fd8a 433f c9d5 46be 03ec fbbe bf3f afbe
00000110: eb14 1dbf 031e 4bbf 005c 293f c358 973e
00000120: 2865 6abe 44a8 a1be c103 c8be b6df 463e
00000130: 7756 bb3e 50e2 cb3e 3696 55bf 91f0 8dbe
00000140: 938b 4d3d 2fd7 a9bf 083b 033f d676 1ebf
00000150: 24e9 da3c 8465 3b3e c55f 8a3e 3788 45bf
00000160: 7739 94bf ade4 37bd 402a 85bf 4062 ffbe
00000170: 8bc6 27bd f437 183f f3ee 793f c6a7 b83e
00000180: 7229 1e3d 107e b2bd f395 82bf 3ee8 6fbe

lstm.weight_hh_l0 f4 [100, 25]
0.87090015 0.3569622 0.4646143 0.05901678 -0.29406205 -0.8872319 0.26433018 -0.405571
-0.30844745 0.6976085 -0.7443374 -0.41729218 -0.14580858 -0.17482148 -0.8377621 0.20744242
0.7649945 0.31356588 0.2318458 0.54890543 -0.45746368 -0.39483193 0.73619574 0.006557767
0.60738975 0.15700658 0.42867082 -0.003378307 -0.23395962 -0.23549746 0.22285838 0.14180656
-0.2005285 0.25079653 -0.20622784 -0.15378325 0.08504162 0.14454256 -0.1293297 -0.49469066
0.31182688 0.16544195 0.1045531 0.022412688 0.117127344 -0.15463597 -0.3506179 -0.30477795
-0.4345665 0.045663048 -0.036873467 0.2008435 0.24295978 0.034707885 0.29889777 0.1486068
-0.1540769 0.060540006 -0.07209416 0.13716997 -0.14993908 -0.0027744584 0.34115064 -0.15224011
-0.44043812 -0.17915478 0.06362832 -0.08776308 0.093199 -0.19006848 0.077920265 -0.2920029
-0.083478734 -0.41860265 -0.12753011 0.3491132 0.42677936 0.27738154 -0.19213521 -0.040394638
0.08904747 -0.058517434 -0.9027547 0.07720338 -0.2001591 -0.17622916 -0.44678903 -0.2690846
0.076320015 -0.035502084 0.15678263 0.102420606 0.09014712 0.86598414 0.8222196 -0.7758189
-0.32294127 -0.28744403 0.055718753 0.48645204 0.46753842 0.1735219 0.54864216 -0.26274383
-0.3229452 -0.18019518 0.22212088 -0.7946357 0.015313856 0.39466745 -0.4723527 -0.34846738
0.16057056 0.09194388 -0.9420984 -0.018514475 -0.08014896 -0.01343363 0.50698 0.9102975
-0.48988384 -0.25163478 -0.08527761 -0.17103004 0.1309789 -1.0582379 -0.5261373 -0.5693611
0.23777203 0.6936758 1.4804125 0.021433018 0.363019 -0.11707003 -1.4428514 1.1836617
0.9600934 0.12086802 -0.2788215 0.85358804 -0.01818158 -0.7815096 -0.46318072 -0.45853278
-0.49167258 0.36171028 0.6258113 0.37414578 -0.3051013 -0.74619937 0.46033338 0.51318747
0.27258253 -0.20698662 -0.3202101 -0.06321104 -0.048971213 -0.65619457 0.08886204 0.08944253
-0.2159698 -0.51519424 -0.101826034 0.21250752 -0.4339301 0.07952446 -0.016945325 0.06639411
0.99417764 1.207278 -0.9291143 -0.3413442 -0.23952144 -0.06960039 0.3266126 0.028672144
-0.0129131125 -0.15916115 0.01412841 0.13619368 -0.27550262 -0.2538172 -9.2325434e-05 -0.22040421
0.37768272 0.101441935 -0.13132663 0.0014248138 -0.41681054 -0.24127491 -0.044644237 0.31703758
0.13700663 -0.3041505 0.09189749 -0.00914028 -0.016101593 0.081237845 -0.41847327 0.06167366
0.16159509 0.34724483 -0.038628887 -0.37298155 0.00363296 0.055463213 -0.108976826 -0.55812204
0.11304377 -0.46206132 -0.20200963 -0.26687226 -0.27387592 -0.04545979 0.0989911 0.03777386
0.17014302 0.23676929 0.3592302 0.49974683 -0.69152224 -0.17605479 -0.1923456 0.1556824
0.21300286 -0.52131426 -0.33757946 0.10046501 0.31071836 0.5242183 0.4368643 -0.026833404
0.24851792 -0.13873321 -0.047529727 0.38073137 0.32968256 0.45085135 -0.22548243 -0.20270671
-0.19275744 -0.27116248 -0.45487294 -0.3602209 -0.1371083 0.4486914 0.23537426 0.050589386
-0.31827843 -0.39677975 0.26766935 0.16389026 0.16635947 0.2980598 -0.064408496 0.011964803
00000000: 50f3 5e3f c0c3 b63e ede1 ed3e 94bb 713d
00000010: 4d8f 96be a121 63bf 4956 873e 01a7 cfbe
00000020: d3ec 9dbe 7896 323f e58c 3ebf 52a7 d5be
00000030: d84e 15be 6704 33be 9477 56bf c96b 543e
00000040: aed6 433f b58b a03e fc68 6d3e 1185 0c3f
00000050: ae38 eabe 6927 cabe 5377 3c3f 89e2 d63b
00000060: e57d 1b3f 55c6 203e be7a db3e 9666 5dbb
00000070: 1c93 6fbe 3f26 71be fd34 643e bd35 113e
00000080: 5857 4dbe 6768 803e 642d 53be 5b79 1dbe
00000090: 4d2a ae3d f702 143e 016f 04be 1848 fdbe
000000a0: c6a7 9f3e 9d69 293e f01f d63d d09a b73c
000000b0: 76e0 ef3d e458 1ebe 3084 b3be db0b 9cbe
000000c0: 807f debe 2d09 3b3d a208 17bd eba9 4d3e
000000d0: 73ca 783e db29 0e3d 2109 993e 622c 183e
000000e0: 56c6 1dbe ccf8 773d 1aa6 93bd 4976 0c3e
000000f0: a189 19be b0d3 35bb 4cab ae3e d5e4 1bbe
00000100: 1b81 e1be 5a74 37be 914f 823d 21bd b3bd
00000110: 1edf be3d 50a1 42be a994 9f3d 6781 95be
00000120: e6f6 aabd 1653 d6be 4197 02be f7be b23e
00000130: d382 da3e f404 8e3e 18bf 44be d974 25bd
00000140: 855e b63d faaf 6fbd ef1a 67bf ce1c 9e3d
00000150: 82f6 4cbe 6b75 34be 88c1 e4be 75c5 89be
00000160: ab4d 9c3d a26a 11bd a08b 203e e5c1 d13d
00000170: 0e9f b83d 23b1 5d3f fc7c 523f 119c 46bf
00000180: 8f58 a5be dd2b 93be 5939 643d 3e10 f93e
00000190: 3261 ef3e baaf 313e d073 0c3f 5c86 86be
000001a0: 1359 a5be 1685 38be a873 633e 3f6d 4bbf
000001b0: f8e6 7a3c da11 ca3e 37d8 f1be 516a b2be
000001c0: 9c6c 243e 134d bc3d 5c2d 71bf abab 97bc
000001d0: 2325 a4bd ba18 5cbc 71c9 013f 4209 693f
000001e0: 0ed2 fabe 46d6 80be 07a6 aebd 8022 2fbe
000001f0: 551f 063e 5774 87bf efb0 06bf a6c1 11bf
00000200: 837a 733e bd94 313f 287e bd3f 4c94 af3c
00000210: a0dd b93e 69c2 efbd 5baf b8bf 3a82 973f
00000220: aec8 753f a789 f73d b1c1 8ebe bf84 5a3f
00000230: 89f1 94bc 0311 48bf 0626 edbe cfc4 eabe
00000240: 82bc fbbe 1732 b93e 2b35 203f 0990 bf3e
00000250: 3d36 9cbe ec06 3fbf d1b0 eb3e 4160 033f
00000260: f08f 8b3e 4df4 53be 94f2 a3be ca74 81bd
00000270: 0a96 48bd 5efc 27bf 4dfd b53d a52d b73d
00000280: 3027 5dbe c5e3 03bf 2b8a d0bd 929b 593e
00000290: 162c debe b8dd a23d ecd0 8abc a3f9 873d
000002a0: 6d82 7e3f 1688 9a3f 6fda 6dbf abc4 aebe
000002b0: 1c45 75be a68a 8ebd c439 a73e d8e1 ea3c
000002c0: 8591 53bc 24fb 22be d97a 673c 5b76 0b3e
000002d0: ae0e 8dbe 54f4 81be d79e c1b8 a4b1 61be
000002e0: a15f c13e cac0 cf3d 7d7a 06be d1c0 ba3a
000002f0: 3168 d5be c510 77be e0dc 36bd c052 a23e
00000300: 774b 0c3e 9db9 9bbe c034 bc3d 1dc1 15bc
00000310: 7de7 83bc 0760 a63d 2142 d6be 859d 7c3d
00000320: 2f79 253e 13ca b13e 5339 1ebd 70f7 bebe
00000330: f416 6e3b 652d 633d 3e2f dfbd 16e1 0ebf
00000340: 7e83 e73d 4d93 ecbe 9ddb 4ebe 7ba3 88be
00000350: 7739 8cbe 0b34 3abd d9bb ca3d c3b8 1a3d
00000360: f939 2e3e a673 723e 05ed b73e d1de ff3e
00000370: 9a07 31bf b547 34be 3ff6 44be 356b 1f3e
00000380: 6c1d 5a3e da74 05bf 37d7 acbe 99c0 cd3d
00000390: 7a16 9f3e 2c33 063f adac df3e bad1 dbbc
000003a0: 7b7b 7e3e 1410 0ebe 88ae 42bd 39ef c23e
000003b0: 27cc a83e fdd5 e63e dee4 66be 5992 4fbe
000003c0: 3562 45be cfd5 8abe 1be5 e8be e06e b8be
000003d0: 1e66 0cbe e1ba e53e f305 713e d136 4f3d
000003e0: 64f5 a2be b726 cbbe f50b 893e d9d2 273e
000003f0: 235a 2a3e 4b9b 983e 9ae8 83bd 0508 443c

lstm.bias_ih_l0 f4 [100]
-0.5722396 -0.47923338 -0.05555489 -1.4206454 -0.660958 -0.5366305 -1.3423265 -0.059141714
-1.5892681 0.2883693 -0.21374314 -0.22894944 -1.6042573 -1.3511661 -0.0502998 -1.5974344
-0.34234184 -0.67762524 0.0013089409 0.654865 -0.08129392 -0.5044818 -0.24863878 -1.6200812
-0.35115024 -0.655519 -0.4334983 -0.019598525 -0.93615156 -0.75217426 -0.22684282 -1.1682249
-0.15488437 -1.1233898 -0.13075203 -0.45618466 -0.56972533 -0.90748703 -1.1146841 -0.38006604
-1.0533323 -0.7165533 -0.7175347 -0.14589587 -0.14080909 -0.15020126 -0.4104957 -0.76285464
-0.9901086 -0.54360825 -0.0038536843 -0.032118775 0.045548744 -0.050216105 -0.055806514 -0.16686687
-0.0012654427 0.07444546 0.035058837 0.16762947 -0.02552042 -0.14492169 -0.011135235 0.13483663
-0.092481375 -0.06121674 0.11881508 -0.010041395 0.07268943 0.266568 -0.14392091 -0.18088712
0.08741648 0.0538935 -0.04608362 -0.37919697 -0.6739001 -0.078875616 -1.6557496 -0.752814
-0.15139632 -1.3643022 0.1237719 -1.615636 0.46031138 -0.32505664 -0.58983755 -1.8436487
-1.2722844 0.043083325 -1.9084966 -0.33190474 -0.7819073 0.008389563 0.8523262 0.010832467
-0.545159 -0.3594417 -1.7386085 -0.5168692
00000000: 4b7e 12bf 145e f5be 868d 63bd b5d7 b5bf
00000010: 8b34 29bf 9e60 09bf 5bd1 abbf 953e 72bd
00000020: 236d cbbf 24a5 933e 7bdf 5abe b971 6abe
00000030: 4e58 cdbf 03f3 acbf 2a07 4ebd bb78 ccbf
00000040: 6e47 afbe d978 2dbf c590 ab3a 3ca5 273f
00000050: 6d7d a6bd b825 01bf 2a9b 7ebe d25e cfbf
00000060: f7c9 b3be 18d0 27bf 7df3 ddbe 168d a0bc
00000070: a1a7 6fbf 7e8e 40bf 7c49 68be 6588 95bf
00000080: 029a 1ebe 3dcb 8fbf dce3 05be 0991 e9be
00000090: 85d9 11bf 1251 68bf f8ad 8ebf 0498 c2be
000000a0: 98d3 86bf 0970 37bf 5bb0 37bf ba65 15be
000000b0: 4230 10be 5cce 19be 7e2c d2be 714a 43bf
000000c0: c277 7dbf e929 0bbf 188e 7cbb fa8e 03bd
000000d0: 5291 3a3d 67af 4dbd 5f95 64bd 26df 2abe
000000e0: 36dd a5ba dd76 983d db99 0f3d 0fa7 2b3e
000000f0: 3310 d1bc 5a66 14be 9070 36bc 9d12 0a3e
00000100: e066 bdbd 68be 7abd 5255 f33d aa84 24bc
00000110: 32de 943d 9a7b 883e 0160 13be 793a 39be
00000120: 6907 b33d 6ebf 5c3d 2ec2 3cbd 1b26 c2be
00000130: b884 2cbf 8a89 a1bd 9aef d3bf 6bb8 40bf
00000140: a307 1bbe 74a1 aebf 1f7c fd3d 29cd cebf
00000150: efad eb3e d36d a6be 98ff 16bf aefc ebbf
00000160: 37da a2bf 2478 303d 9e49 f4bf 6bef a9be
00000170: 142b 48bf 6174 093c 0d32 5a3f a97a 313c
00000180: 8a8f 0bbf be08 b8be b98a debf 8a51 04bf

lstm.bias_hh_l0 f4 [100]
-0.4151697 -0.6581385 0.020985251 -1.6280979 -0.6230586 -0.5165641 -1.42459 0.12707956
-1.5000697 0.37986517 -0.16702874 -0.22896643 -1.6003313 -1.4219764 0.069793865 -1.780321
-0.20149359 -0.67973703 0.06922902 0.9204817 -0.085935615 -0.40083507 -0.44872403 -1.536722
-0.5455924 -0.70392203 -0.6232161 -0.2414296 -1.1678123 -0.39069483 -0.4705384 -1.234366
-0.036964763 -0.8085555 0.14027697 -0.4093677 -0.42013046 -1.0105265 -1.1381705 -0.24381325
-1.2787268 -0.4910866 -0.5513701 -0.19520971 -0.15249908 -0.24644119 -0.47307017 -0.749152
-1.0528657 -0.5021983 0.11343786 0.14105727 0.17290625 -0.012234795 -0.067775905 -0.01737409
0.10282072 -0.25448567 -0.025377216 0.06329228 -0.117027104 0.006504635 -0.044797108 -0.024309324
-0.16571641 0.13025044 0.03675122 0.13033675 0.11864899 -0.06777917 -0.054384228 0.063116714
-0.01523124 0.020962957 0.17698069 -0.32441726 -0.62538254 0.027272802 -1.7248206 -0.74642724
-0.38829646 -1.3558156 -0.057907786 -1.5614811 0.12970556 -0.33339742 -0.41621426 -1.5334342
-1.4280409 0.2523005 -1.8754697 -0.124922 -0.8640611 -0.049253345 1.0042819 -0.0041863383
-0.3543072 -0.44655854 -1.54607 -0.39988002
00000000: 1f91 d4be c47b 28bf 43e9 ab3c 8365 d0bf
00000010: c580 1fbf 8b3d 04bf f758 b6bf 2521 023e
00000020: 4902 c0bf b07d c23e 9509 2bbe 2d76 6abe
00000030: a8d7 ccbf 5303 b6bf 16f0 8e3d 8fe1 e3bf
00000040: 5654 4ebe 3f03 2ebf f2c7 8d3d b0a4 6b3f
00000050: 03ff afbd 413a cdbe 28bf e5be 4eb3 c4bf
00000060: f2ab 0bbf 3c34 34bf 178b 1fbf 5239 77be
00000070: e07a 95bf 2709 c8be 69ea f0be b5ff 9dbf
00000080: 5d68 17bd 7efd 4ebf c4a4 0f3e a598 d1be
00000090: 571b d7be ef58 81bf 92af 91bf 2eaa 79be
000000a0: 52ad a3bf b46f fbbe 9726 0dbf 0ee5 47be
000000b0: b828 1cbe 145b 7cbe 4136 f2be 6dc8 3fbf
000000c0: 4ec4 86bf 1190 00bf 1c52 e83d 5171 103e
000000d0: 560e 313e 7374 48bc 18ce 8abd 1c54 8ebc
000000e0: ab93 d23d f24b 82be e1e3 cfbc 629f 813d
000000f0: e8ab efbd d524 d53b 2c7d 37bd 5924 c7bc
00000100: 90b1 29be 5f60 053e 7288 163d ff76 053e
00000110: 3efe f23d cecf 8abd ffc1 5ebd 5643 813d
00000120: 738c 79bc 82ba ab3c 6d3a 353e 051a a6be
00000130: 1219 20bf 366b df3c ecc6 dcbf db15 3fbf
00000140: cbce c6be 5e8b adbf b730 6dbd 9dde c7bf
00000150: 89d1 043e 11b3 aabe 091a d5be 9247 c4bf
00000160: 0bca b6bf 882d 813e 640f f0bf 1bd7 ffbd
00000170: 1c33 5dbf e0bd 49bd 4f8c 803f 8d2d 89bb
00000180: c167 b5be 52a3 e4be 9fe5 c5bf 13bd ccbe

output.weight f4 [1, 25]
-0.18360142 -0.22223517 -0.46559638 0.08386024 0.107393526 0.18844447 -0.16515449 0.43243462
-0.103715986 -0.53993136 0.17505264 0.18621118 0.03213743 -0.12474373 0.4049594 -0.18680999
0.034639936 -0.16424228 -0.36964324 -0.585781 0.39844623 0.26019245 0.26191482 0.03018771
-0.19434913
00000000: 0302 3cbe 9e91 63be a662 eebe ebbe ab3d
00000010: 23f1 db3d 96f7 403e 421e 29be 1268 dd3e
00000020: 0c69 d4bd f138 0abf 0041 333e 25ae 3e3e
00000030: 8aa2 033d a479 ffbd d756 cf3e 1e4b 3fbe
00000040: 9be2 0d3d 212f 28be e141 bdbe bef5 15bf
00000050: 2501 cc3e f237 853e b319 863e 374c f73c
00000060: 7503 47be
