models/best_model_trab3.pt (torch, 251251 bytes, 10 tensors)

conv1.weight f4 [6, 3, 5, 5]
00000000: 35ec 2abe 5658 c8bd 7411 38be 2481 51be
00000010: 4f1f 69be 0899 e7bd 782e d9bd 238e e4bd
00000020: ca23 923a 0eb5 e5bd 02c8 b33b 928a 0e3e
00000030: 828f 263e 7d4c 8dbd 5d79 863b c739 b1bd
00000040: 3080 6d3d 8346 0f3e 782f 173d e1c1 70bc
00000050: e1fe 963a 4f6b a4bd 1470 c0bd 5db8 57be
00000060: 9397 d5bd 005d 903e ac15 893e ccdd bc3e
00000070: e295 3c3e 65e5 843e ce36 593e 91f0 7e3e
00000080: 5e86 f43e 83c9 cf3e 2406 a53e 0a76 ae3e
00000090: d5b5 9e3e 63ea cf3e 8e4a cc3e 3160 903e
000000a0: 133f 463e 921b 483e 5773 353e eb57 a33e
000000b0: 5a0d 803e d2bb 9d3b 06f2 f33d 8339 4b3e
000000c0: 6b6c 133e 06d5 b3bd 9a97 503e de10 383e
000000d0: 5aae 663e c1a4 4b3e 2112 8cbb ce17 343e
000000e0: 3670 cf3d 5b67 163e 61f5 163e def4 f73d
000000f0: 2c9b 863d f681 7f3e 0bd5 983e c6c2 cd3d
00000100: c40c 883d 046d 9dbd 5cd1 a53c c583 4c3e
00000110: 0afb be3c 36a7 993c 7d17 b9bd a2ac b2bd
00000120: c1ce 11be bf87 e9bd 6b7d 8cbc 868f 1cbb
00000130: 8f74 9fbd 1a69 bcbd ee5e 15be 360e 173e
00000140: f6ac 723d f27c 1d3d 7a1e 30be acab 9e3d
00000150: db8c 963e b93f 643e d3cd d83e 78b7 50bd
00000160: 1769 143e 80f3 d63e 84eb a6bd 245a 843e
00000170: 5442 48bb 1bde 5d3e 64d9 083e af8c e9bd
00000180: af60 ec3d a17a f93d 290d 1e3e 146e 913d
00000190: 2cfc 613d b680 963d f711 64bd e817 003d
000001a0: 5603 db3d b0b1 0a3e 888b 383e bea0 663d
000001b0: f691 b63c a979 913e 13a4 803e b593 a63e
000001c0: a70c 69bd 9521 d43d 0d4e eb3e 46c4 5bbd
000001d0: 2555 d33e a5e4 293e 67d7 f93d 3a04 873e
000001e0: 02e1 48bd d1cf 83bd 643a e93d eed8 4a3e
000001f0: 0468 263e 5148 92be c70e 27be 76dd 52be
00000200: 7e8d c4be 4933 06be 9126 5abe 6c8e 51bd
00000210: 4dc0 98be af96 9fbe 4578 b5bc 9d9b 28bd
00000220: d724 c73d 8e97 d1be 08fb 89be 73e0 283e
00000230: 742f 88be c121 c23d 3a23 77be 2e3b 3abe
00000240: 3ee6 50be 7875 9dbe 3d9e 8cbe a699 cbbd
00000250: 7f9d 3fbe 2356 b1be 8f9e a33e a9c1 b33e
00000260: 4d7b 743e 2ffe 473d 0ae0 353e 1dcb dd3e
00000270: 6afd 083f dfcc db3e 7f72 9a3e 1fdc 6a3e
00000280: fbdf d43e 8059 d43e d16c 013f 79d5 9c3e
00000290: 2efa 2b3e 2abe f93e 42eb 073f c235 f63e
000002a0: fbf6 8b3e cf03 fd3d f311 a73e ca32 bb3e
000002b0: f80b e53e 4353 493e 7f8f c23d 08c1 d63d
000002c0: 7417 803d d22d d1bd 6111 82be f59b 51be
000002d0: 77f2 ca3d 761e 043e 1e0b 653d 8f8f 88be
000002e0: 6ef3 b6be b982 673e 8268 743e ad7a 94bd
000002f0: aa44 22be 021d d9be ea7f ec3c 1004 a53d
00000300: 8ce2 be3b a7af 79be 8bd5 89be fce7 87bd
00000310: f355 2bbd 75ba c0bd 24b0 62be 83cb 8cbe
00000320: f908 503d 4b39 663d 57a4 1bbe 8174 abbe
00000330: ebdf 72be 0795 4abd 439d d0bc bb75 f0bd
00000340: cb47 c2be ede4 bbbe 8c45 093e ea48 6dbb
00000350: 50b0 12be be15 b8be 298c 96be b8ce c3bd
00000360: 4dd9 563d 98eb 32be 7905 d3bd 7423 afbe
00000370: 8d28 953d 2970 083c c54d 4c3d 51d8 83bd
00000380: 4fbe 29be 3b41 3c3d 4c09 e53d cb19 42be
00000390: b644 fc3d 9a01 7f3d 8c3d 843e 2c76 10be
000003a0: fee5 86be e8e0 343e 1c78 793e 6042 9c3e
000003b0: 2bed 23be 2830 e4bd 233d 0b3e 06df 333e
000003c0: 5be1 003e 8fa5 79be 7009 0abe 7dc6 723e
000003d0: d717 673e ce31 593e 2816 01bd 8bf9 40be
000003e0: 14a2 be3e 7bc2 9d3e 7f9f 033e 176e 9e3c
000003f0: eb83 9cbe 5b65 d8bd ef2c 273e 6b2f 873d
-0.16691668 -0.09782474 -0.17975408 -0.2045942 -0.2276585 -0.11308485 -0.10604566 -0.11159923
0.0011149582 -0.11216174 0.0054864893 0.13920048 0.16265681 -0.068993546 0.004103823 -0.08653598
0.057983577 0.13991742 0.036910504 -0.014694662 0.0011520052 -0.0802828 -0.09396377 -0.21066423
-0.10429301 0.28195953 0.26774347 0.36887968 0.18416551 0.25956264 0.21212313 0.24896456
0.47758764 0.4058343 0.32231247 0.34074432 0.30998102 0.4060851 0.3990063 0.28198388
0.19359998 0.19541767 0.1771978 0.31903014 0.25010186 0.0048136497 0.11911397 0.19846158
0.14396827 -0.08780865 0.20370331 0.17975184 0.22527447 0.19887067 -0.004274622 0.17587206
0.101288244 0.14687864 0.14742042 0.121072516 0.065725654 0.2495192 0.2985004 0.10046916
0.0664306 -0.07686809 0.020241432 0.19972141 0.023313064 0.01875649 -0.09037683 -0.08724333
-0.14239027 -0.11402845 -0.017149648 -0.0023889258 -0.07785904 -0.09199734 -0.14586994 0.14751515
0.05924698 0.038449235 -0.17199126 0.077475876 0.2940434 0.22289933 0.4234453 -0.05095622
0.14493214 0.4198265 -0.0815039 0.25850022 -0.0030557113 0.21666758 0.13364178 -0.114037864
0.115418784 0.12181593 0.15434708 0.07101074 0.05517213 0.073487684 -0.055681195 0.0312728
0.10693996 0.13544345 0.18021977 0.05630564 0.022286396 0.28413132 0.2512518 0.32534567
-0.05689683 0.10357968 0.45957986 -0.053653978 0.41275898 0.16591127 0.12199288 0.26370412
-0.04904271 -0.06436122 0.1138809 0.19809315 0.16250616 -0.28570798 -0.16314231 -0.20592293
-0.383892 -0.13105501 -0.21303774 -0.051161215 -0.29834214 -0.3116965 -0.022152076 -0.04116403
0.097238235 -0.4093594 -0.26949334 0.1649187 -0.26598704 0.09479094 -0.24134532 -0.18186638
-0.2040033 -0.30753684 -0.27464476 -0.099414155 -0.18712424 -0.3463603 0.31956908 0.35108688
0.2387516 0.048826393 0.17761245 0.43319026 0.5351168 0.42929742 0.3016548 0.22935532
0.41577134 0.41474533 0.50556666 0.30631617 0.16794655 0.48777896 0.5309335 0.4808789
0.2733687 0.12354242 0.32630882 0.36562186 0.44735694 0.19660668 0.09500026 0.104860365
0.06254473 -0.10213818 -0.25403884 -0.20469649 0.09909528 0.12902245 0.055918805 -0.26672027
-0.35732597 0.2260846 0.23867992 -0.07249961 -0.15846506 -0.42404944 0.028869588 0.080574155
0.0058253463 -0.24383412 -0.26920733 -0.066360444 -0.041830014 -0.09410564 -0.22137505 -0.27499017
0.050789807 0.056206983 -0.1519941 -0.33487323 -0.2371823 -0.04945853 -0.025465613 -0.11741205
-0.379454 -0.36698094 0.13405436 -0.003620679 -0.1432507 -0.35954088 -0.2940381 -0.09560913
0.052453328 -0.17472684 -0.10303778 -0.34206736 0.07283125 0.008327522 0.049878854 -0.064377435
-0.16576503 0.045960646 0.11183414 -0.18955152 0.12317793 0.062257387 0.25828207 -0.14107579
-0.26347345 0.1766392 0.24362224 0.3051939 -0.16008441 -0.111419976 0.1359754 0.17565545
0.12585966 -0.24379562 -0.13480163 0.2370853 0.22567688 0.21210405 -0.03151527 -0.18845193
0.3723303 0.3081244 0.12853812 0.019339604 -0.30569395 -0.10566207 0.16325735 0.06600841

conv1.bias f4 [6]
00000000: 422b a2be dc88 853e cbff 32be 8f09 b23c
00000010: 45c0 483c 886a 0abf
-0.31673628 0.26080978 -0.1748039 0.021733074 0.012252872 -0.54068804

conv2.weight f4 [16, 6, 5, 5]
00000000: ecc4 c03d a749 933e acd7 723e b597 013d
00000010: 040d 87bd ef2c b83d 10ad 9e3e 0987 2bba
00000020: 41f7 afbe 1a84 72be e73c 543e d0bb 233e
00000030: 1646 1dbe 7edb afbe 139d 0abe edd1 543e
00000040: 555c 5a3c c77c 15be 6237 24be 84c8 8b3c
00000050: 710b 0abe 3386 36be fb70 0cbe 9a5d a0bc
00000060: ebb3 ac3d b556 113e 777f a73c f740 80bd
00000070: 1d36 36be 3372 41bd 99a4 853e 2478 d53d
00000080: 0fab d8bd 1577 cdbd 04e6 473d 74c2 043e
00000090: 2fea 4f3d 5893 07be a5d8 62bc 1eda b1b9
000000a0: 87e3 183d d02b 56bc 767c e9bc 2782 193d
000000b0: 6f18 26bd 7cff a03d f180 60bb 49d8 8c3d
000000c0: 4101 cb3d 971a 853d 5021 99bd 88ed 623d
000000d0: c981 373e 7163 803e 2fed 833c 29ee d4bd
000000e0: 3649 663d 5555 323e 288b c2bd 757e aabe
000000f0: 7177 cbbd ac21 443e b6fe f73c 71ce 1bbe
00000100: a7ed b9be 763c e03c 834d 7eba 2458 35be
00000110: d7d9 83be 7049 38be dcae 1e3e c142 cbbd
00000120: cc2a 99bd 8ffe ea3c eff3 a6bd 55b9 803e
00000130: fd2a 253e 12d0 e9ba b558 e53c bf8e 503e
00000140: f55b 7e3e df9e 153e 61e4 033e 1d96 4b3e
00000150: 50eb bd3e 575c e13d fb99 c63d b4d2 3b3e
00000160: 7a43 933e ae08 733e 06b0 733d 3e5f 833d
00000170: d6fa 333e 36eb 9d3e acb7 033e 6b9a c93d
00000180: 3fa0 fc3d f5f7 a83d d00b 583e aae4 353e
00000190: 87e1 b63d e829 913c b65a f43d 7aee 163e
000001a0: 4b30 ff3d 942a c43b 2421 ee3d 6833 2c3e
000001b0: 0ca2 433e 476e b13c 9c11 18bc 3ffd 473e
000001c0: 0ff8 443e 4f8b 3f3e 0e43 cb3d 82be 353e
000001d0: 0f63 0a3e a9f9 283e d670 303e ef51 283e
000001e0: a0bb df3d df52 223d acd2 003d 9d82 ea3d
000001f0: 39f1 953d afd9 7c3c d4d5 d03c 88ab 0c3d
00000200: e123 20bd cf44 07bd a9e3 383d 305e 0d3e
00000210: 41e4 083c caf1 36be b537 bebc 0285 163e
00000220: 7e05 bd3d dbdf 16be 8d0e f9bd 8c23 143e
00000230: 7fba 973d df4f 4bbd 563e 48bd f593 b2bd
00000240: 6dcb a23d 48de 83bd 192e 603d 6361 eb3d
00000250: dda0 303e 30fc 8a3d f020 cabd fa08 50be
00000260: 7b66 7fbe 6374 c6bd 6b63 223e 9925 48be
00000270: 9775 e0be f70c 8abe 1c29 033d 0990 f63e
00000280: a5f4 f5be aa7d c9be 25c5 d1bd f3b2 963e
00000290: 9828 153f 94bb 09bf 58a2 9dbe d1b9 1d3e
000002a0: f893 c03e 4714 c93e 3034 e4bd ce79 083e
000002b0: 43d9 663e 7163 c63e decf a53e e20c 963d
000002c0: 41dc 97bd addb 25bd e23b 9abd 756a 2c3d
000002d0: 7564 fbbd ad7d b1bc 33fe 013d 17d9 273d
000002e0: a775 bb3d debd 4fbc ed39 323d 3955 7c3d
000002f0: 1ad5 7bbd 727a 8a3c b226 6d3b 086c 5d3c
00000300: 05cd 6b3c 4e77 0ebc 0f16 02bc 57aa 6dbd
00000310: d2a7 b5bb bb75 46bd e295 ebbd 7eca adbd
00000320: 38e0 1b3e de22 1c3e a1fa c83d 5b09 493d
00000330: cc58 c73d 291f 273e 82bd bbba 26bb 24bd
00000340: 1b3f 9ebd 02ec 923c cf12 003e cbd8 74bd
00000350: c0e4 09be dfee 66bd 26de ed3d 731e c33b
00000360: 23ed 5fbe 3229 a9bd 5462 0bbd b4d7 063b
00000370: 7231 84be af7a b6bd 8bbc afbd dac4 dbbd
00000380: a03d 553d e7e0 423d e85c 6b3d 603f 023e
00000390: 84d5 333e d4d2 973d 813c 493d d93d 223e
000003a0: 2d88 1e3e 26c2 013e 5b18 f33d 85df d53a
000003b0: b19b 433e da01 883d 0954 f33d be6f ccbd
000003c0: 6c3b a73d af22 013d 6c0d c8ba 2a77 6ebd
000003d0: c51d 4cbd 5359 19bc 0860 b4bc 7689 c2bd
000003e0: db71 9cbd 82d9 09bd 40fa ff3c e5fa 6f3d
000003f0: ffd2 71bc 97f5 26bd ac50 d5bc 468e a63d
0.0941256 0.2876713 0.23715085 0.03163882 -0.065942794 0.089929454 0.3099141 -0.0006543254
-0.34368327 -0.23683205 0.20726357 0.15989614 -0.15358767 -0.34347147 -0.13536482 0.20783205
0.013327678 -0.1459838 -0.16036752 0.017063387 -0.13480927 -0.1782463 -0.13714974 -0.019575883
0.08432754 0.14193232 0.020446522 -0.06262391 -0.1779408 -0.04722805 0.2610214 0.10423306
-0.10579502 -0.10032479 0.048803344 0.12964803 0.050760444 -0.13239801 -0.013845597 -0.0003392258
0.037326362 -0.013071969 -0.02850173 0.03747764 -0.040550645 0.0786123 -0.0034256543 0.068771906
0.099123485 0.06499212 -0.07477057 0.05540231 0.17920603 0.25075868 0.016104309 -0.10396988
0.056222163 0.17415364 -0.09499198 -0.33299604 -0.09934891 0.1915347 0.030272823 -0.1521547
-0.36314127 0.02737258 -0.0009700881 -0.17709404 -0.25752136 -0.17996764 0.15496391 -0.09924842
-0.07478866 0.028685836 -0.081519954 0.25141397 0.1612968 -0.0017838499 0.0279964 0.20366953
0.24839766 0.14611386 0.12880088 0.19881482 0.37093592 0.110039406 0.09697338 0.18342096
0.28762418 0.2373378 0.05949404 0.064146504 0.17576155 0.30843514 0.12863034 0.09843906
0.12335252 0.08250419 0.21098256 0.1776301 0.08929735 0.017720178 0.11931364 0.14739409
0.12460383 0.005986521 0.11627415 0.16816485 0.19104785 0.02165903 -0.009281542 0.195302
0.19235252 0.18705486 0.09924899 0.17748454 0.1351435 0.16501488 0.17230543 0.16437505
0.109244585 0.039629813 0.031450912 0.11450694 0.073214 0.015432759 0.025492586 0.034343272
-0.039096717 -0.033024605 0.04513899 0.13805461 0.008355201 -0.17865673 -0.023219923 0.14699176
0.09229563 -0.14733832 -0.121609785 0.14466685 0.07408618 -0.049636718 -0.048887573 -0.08719627
0.07948957 -0.06438881 0.054731462 0.114931844 0.17248864 0.06786382 -0.098695636 -0.20315924
-0.24941437 -0.09690168 0.15858237 -0.19545592 -0.43839714 -0.26963016 0.032021627 0.48156765
-0.4803821 -0.39353687 -0.102426805 0.29433402 0.58265066 -0.53801847 -0.3078792 0.15402915
0.3761289 0.39273283 -0.111427665 0.13327715 0.22543816 0.38747743 0.32385153 0.07326676
-0.07415057 -0.040492702 -0.07530953 0.042093713 -0.1227502 -0.021666372 0.031736564 0.040978517
0.091533 -0.012679545 0.043512274 0.061604712 -0.061482526 0.01690409 0.0036186394 0.013514526
0.014392142 -0.008695437 -0.0079398295 -0.058023777 -0.0055436874 -0.04845212 -0.11503197 -0.08485888
0.15222251 0.15247676 0.09813429 0.049081188 0.097337335 0.1632048 -0.0014323446 -0.04021754
-0.0772688 0.017934803 0.12507175 -0.059777062 -0.13466167 -0.05638015 0.11614637 0.0059545576
-0.21867804 -0.082598105 -0.03402932 0.0020575346 -0.25818974 -0.08910119 -0.085808836 -0.10730906
0.052060723 0.047577765 0.05746165 0.12719488 0.17561918 0.07413259 0.049129967 0.15843906
0.15481634 0.12671718 0.1186988 0.0016317224 0.1910236 0.06640978 0.11881263 -0.09982251
0.08165631 0.031527217 -0.0015262789 -0.058219112 -0.049833078 -0.009359675 -0.022018448 -0.09498875
-0.07638904 -0.033654697 0.031247258 0.05858888 -0.014759778 -0.040761556 -0.026039444 0.08132605

conv2.bias f4 [16]
00000000: d9e2 433c 2c28 ee3d fdfc 963d 2828 313c
00000010: 6a69 003d e6a8 223c 90d0 53bd 99f3 e33d
00000020: b094 ce3e 88ff 9ebc 364d 07be 89b6 9e3b
00000030: 5152 af3d 2340 86bd d263 9abe 42f2 f73d
0.01195594 0.11628756 0.073724724 0.010812797 0.03135053 0.009927964 -0.051712573 0.11130447
0.40347815 -0.019408956 -0.13213047 0.004843537 0.085606225 -0.06555202 -0.30154282 0.12106754

fc1.weight f4 [120, 400]
00000000: 11a9 8e3d 85fc c03d 83cd 25bc 5a30 b83c
00000010: 50d6 a23d 123d 103d 9ec7 e73c 3259 8dbc
00000020: 3cbd 03b9 b4d4 cabd e3e3 a7bd b5d3 e8bd
00000030: 1a12 333d db24 e3bc d558 1fbd c20f dcbd
00000040: e86d 013d eeb1 663d 4858 2fbd 4ef4 c03d
00000050: 32c5 9cbd d4d3 02bd 0dbd 0fbc d259 89bc
00000060: d0b6 f73d fde9 bb3d 6821 7d3d 25cc 963c
00000070: e44a 03bc 0a49 80bd f858 42bb 5b5f aabc
00000080: 6567 8cbb 279c 833c b874 17bd d4e5 a6bd
00000090: aaca 9abd e9c7 0e3d 95ae 823d c98a 75bc
000000a0: a0ff eebc e631 9d3d 690f 013d d823 f1bc
000000b0: b1e7 523d 6e5d 9a3c 8e43 973d 84ca 27bc
000000c0: 22d9 0fbc 474e 483c 6198 8e3d ac44 d1bc
000000d0: dcb2 813d 3294 7cbd 1936 6dbb 8a48 333d
000000e0: e033 b03d 30ba a7bc 008f f63c b4b5 273d
000000f0: 62f7 093d d2ed 0d3d 4294 ea3d 17c3 bd3d
00000100: a7e4 4abd 4b73 fe3c 406b ce3d 8f25 8e3d
00000110: 7625 f23c de0d 963d e495 db3d 3ce6 9a3d
00000120: 382a 8c3d e7b1 ef3d c004 b43d b3f8 4b3d
00000130: 2f77 063d ab0e 39bd a12f 47bb 9e73 97bc
00000140: 5072 e53c c716 383d 7fb2 45bd a5e4 323d
00000150: b94d efbc 3538 3abc c361 24bd 5a40 00bd
00000160: 08a6 373d fc82 103d 595b 3bbc f911 1d3d
00000170: e37e abbb 5047 febc 70e4 063d d56d c4bb
00000180: 8b90 88bc 0155 03bd 1e01 603c 2f1c 8a3b
00000190: d98c 19bd d6e4 10bd 1fb2 243d 6dc5 c23c
000001a0: 1a5a 13bd 9f89 173b c7d9 2abd 3201 2bbb
000001b0: f812 a43c 2286 3abd 17da c3bc 7aa9 36bb
000001c0: b6f7 353d e746 7a3c 384b a73a de9c 463d
000001d0: 38b7 0cbd 4e6a 2bbc fb0d cdbc 6656 04bd
000001e0: 97be 25bc 4011 243d 2c1a d73c 4dcb edbc
000001f0: 9a36 9abb 4919 313c 59fc 4ebd 2eeb a5bd
00000200: e7d0 2bbd e59b a13d 0101 373d 76c7 29bd
00000210: caab 073d d110 203c 3c05 1dbc 5f4f 043d
00000220: a661 a73b bffa a33d 010a 6ebc 6e6a 8fbd
00000230: c525 eb3c 2ec7 0ebc 2208 30bd bd61 753d
00000240: 41a2 01bd 251b c43d 0d56 1f3d 09ca 12bd
00000250: d006 39bd b56f 51bc ad3e 33bd ca5e 3c3d
00000260: 4dae 41bd 19af b03c 9612 94bc dd9d 11bd
00000270: 0fbb 883c 578b 3bbd 3c33 45bd 4b66 d0bb
00000280: 2d00 2f3d 2db7 223d a2b9 36bd 79f1 e13c
00000290: 2044 c63b cdfd 90ba 8468 44bd 9426 113b
000002a0: b89b eb3c a337 f73c a0e8 023c 82df 95bc
000002b0: 2555 10bc adaf 763c dee6 863c b2d8 95bd
000002c0: 4818 d6bc 4892 95bd 8925 89bd 58db 8ebd
000002d0: 2c1f e33b 9a8e 0f3d 1a82 0fbd 8160 64bd
000002e0: 178f 52bd 7763 6b3d 2cb4 cc3c 3a8f 85bc
000002f0: f6ae 14bd 1211 8ebc 0f10 29bb d9d5 083d
00000300: 3ded 8a3d 366b 89bc e6b9 9abc d4ef 0f3d
00000310: a009 713c cbcf e7bc 91d4 a2bc 50f7 5fbd
00000320: 4294 6a3d 6ac0 00bd e2fa 173b aff1 4bbd
00000330: e288 0abb c025 d4bc d92a 76bd 9a70 12bd
00000340: 8c5b 6abc d66e 233c fc5e 3a3d 4569 3dbd
00000350: a493 223c 729c 84bc 89ae 6c3d f5f6 ae3c
00000360: 13a9 e73c 69d4 f5bc a68b 853c 1004 e23d
00000370: 7013 b73c 1287 9cbd 12e7 aa3c 4d17 4d3c
00000380: 0d27 b13d cc51 eebd 08b6 58bd 92ec 4f3b
00000390: 8a11 19bd 0bf7 36bd ed87 56bd a8a7 8abd
000003a0: d9d6 3e3d aa04 f73c 6ad0 b1bd 2254 57bb
000003b0: ff08 8c3c 7b58 bebc 8b29 5e3c d6ba 59bd
000003c0: 7136 783d 961b 113d 96cb 18bc b616 08bd
000003d0: 435e 65bd ea99 123d 4d88 313d 79fd 133d
000003e0: 6ca3 51bc 6c95 f1bd d585 ed3c b251 1abd
000003f0: 35b4 0c3d 0b1d 253d 8a59 de3c 7e62 9abc
0.069658406 0.09423164 -0.010119799 0.022483993 0.07951033 0.03521449 0.028293427 -0.017254446
-0.00012563629 -0.09903851 -0.08197763 -0.11368505 0.043718435 -0.027727535 -0.038903076 -0.10745193
0.031598955 0.05632203 -0.0428088 0.094215974 -0.076547995 -0.031940296 -0.008773101 -0.016766462
0.120954156 0.09175489 0.061799437 0.01840789 -0.008013461 -0.06263931 -0.002965508 -0.020797422
-0.0042847865 0.01606567 -0.036976546 -0.08149305 -0.07558186 0.034858618 0.06380955 -0.014986702
-0.029174626 0.07675533 0.031508837 -0.029436037 0.05149049 0.018843379 0.07385932 -0.010241155
-0.008779796 0.012225694 0.06962658 -0.02554544 0.06332943 -0.061664768 -0.0036195575 0.04377035
0.08603644 -0.020474523 0.030097485 0.04094477 0.03368319 0.03465063 0.11454059 0.09265726
-0.049534466 0.031060835 0.1007905 0.069407575 0.029558878 0.07326864 0.10721949 0.07563445
0.0684399 0.11703854 0.087899685 0.049797725 0.032828506 -0.045180004 -0.003039338 -0.018487748
0.02800861 0.044943597 -0.04826593 0.043675084 -0.029211866 -0.01136594 -0.040132295 -0.03131137
0.044836074 0.035281166 -0.011435353 0.03834722 -0.005233632 -0.031039864 0.0329327 -0.0059945383
-0.016670486 -0.032063488 0.013672141 0.0042147855 -0.03748784 -0.035374485 0.040208932 0.02377578
-0.0359746 0.00231228 -0.041711595 -0.0026093242 0.020028576 -0.045538075 -0.023907704 -0.0027872012
0.04442569 0.0152756935 0.0012763506 0.048489444 -0.03435442 -0.010462357 -0.02503108 -0.03230896
-0.010116241 0.040055513 0.026257597 -0.029027605 -0.004706216 0.010809251 -0.050533626 -0.081014976
-0.04194727 0.07891063 0.04467869 -0.041449986 0.033122815 0.009769634 -0.0095837675 0.032302257
0.005108076 0.080068104 -0.014528752 -0.07002722 0.028704533 -0.00871448 -0.042976506 0.059907664
-0.031648878 0.0957549 0.038900424 -0.035837207 -0.045172513 -0.012782981 -0.043760944 0.045988835
-0.047285367 0.021567868 -0.018075269 -0.03555094 0.016690759 -0.04578718 -0.048144564 -0.0063598505
0.042724777 0.03972547 -0.044610627 0.027580963 0.0060506016 -0.0011061967 -0.047951236 0.0022148238
0.028760776 0.030177897 0.007990032 -0.018295053 -0.008809363 0.015056533 0.016467508 -0.07316722
-0.026134625 -0.073032916 -0.066966124 -0.0697543 0.006931206 0.035048105 -0.035036184 -0.055756096
-0.051405992 0.057467904 0.024988256 -0.016303647 -0.03629967 -0.017342124 -0.0025796925 0.033407066
0.06783531 -0.016774755 -0.018887471 0.035140827 0.014711767 -0.028297326 -0.01987675 -0.054679215
0.057270296 -0.0314335 0.002319031 -0.049791034 -0.0021138717 -0.025896907 -0.060099456 -0.035751916
-0.014304053 0.009975156 0.04550074 -0.04624297 0.009922896 -0.01618788 0.057783637 0.021357993
0.028278863 -0.030008512 0.016301941 0.11035931 0.022348136 -0.0764295 0.020862136 0.012517762
0.086500265 -0.11636695 -0.052907974 0.00317267 -0.037370242 -0.044669192 -0.052375723 -0.06770259
0.046591613 0.030153591 -0.0868233 -0.0032856544 0.017094133 -0.02323555 0.013559709 -0.053156696
0.060598794 0.0354267 -0.009325882 -0.033224784 -0.055998098 0.035791315 0.043342877 0.036130402
-0.0127953105 -0.11796078 0.02899448 -0.037675567 0.034351546 0.0403109 0.027142305 -0.018845793

fc1.bias f4 [120]
00000000: 57e1 c43d e093 d13d 704a 88bd fb18 6ebd
00000010: 29ad de3c 4d63 a23c cf40 c53d ffd6 373d
00000020: fc79 133d f200 95bc 9fb5 2b3c b94b a33d
00000030: 5221 063e e938 023d a019 1f3e b338 b6bb
00000040: 2815 253d fbe7 2abd 2870 b1bd f1c2 84bc
00000050: 1f58 df3d b4d1 bb3d 5c04 423d 85ef d73b
00000060: 40eb e5bc 452d 0b3e ea48 08bd 1f32 d43d
00000070: 8493 1e3d 8459 d63b d261 543d fbef 863b
00000080: 29bf 763a afc2 a2bd fa4f 0dbd 3845 97bc
00000090: 0e67 77bd 4f6a e9b9 e410 e43c 1ebc a9bd
000000a0: d695 d13d 7c9e 2dbd 4d9e 3cbc 4589 5bbd
000000b0: 146b bfbc 0aa3 16bd a4a1 f63c 57cd 42bd
000000c0: be7d 7b3a d093 c4bc cca0 8a3d 3613 8f3d
000000d0: 5899 1cbe aa97 1dbc 3212 3f3d baff 5e3d
000000e0: 1a95 013e 6047 043c d7ae cb3c e234 7e3d
000000f0: ba31 123d 0fa1 c0bb bdb0 a53d 7459 e7bd
00000100: ce01 c53d 94ae 2ebd ef4a b33d acb9 9c3c
00000110: 7164 bc3d a20d 58bc 0eab 4a3c 5c14 19bd
00000120: be79 e83d 44a3 9a3d ec79 833d ec27 8e3d
00000130: 1f68 073e b4bc 0a3b 3ff8 803c aa5f e13c
00000140: 3309 b0bc fe96 343c 6212 76bd 08bf b63d
00000150: 8ed9 78bd f2c6 793d 5919 e1bb a46c 79bd
00000160: 15fa 6c3d 4602 57bc 2c83 ec3d afb9 93bc
00000170: 0d87 773d e04b 063d 8add 463d 2263 40bd
00000180: 1b13 d1bd 8230 963c d286 ebbc a5d1 1c3e
00000190: 0dfa 22bd 9966 8d3c 5542 cebc ca2e aabc
000001a0: cee9 8fbc 715a 163e da98 abbb 350a 0cbd
000001b0: bca2 74bd 1de8 4bbd 8c91 1c3d 9b77 463d
000001c0: 06c3 c73c f7f8 203d 26dd 71bd aa73 7ebb
000001d0: 4df2 c6bc 42d3 cbbd d12d f9bd 9c30 8bbc
0.09613293 0.10233283 -0.06654823 -0.058129292 0.027182179 0.01982274 0.09631502 0.04488277
0.036005005 -0.018188927 0.010480314 0.07973427 0.13098648 0.031792555 0.15537119 -0.0055609583
0.04030338 -0.04172514 -0.0866397 -0.016206237 0.1090548 0.09170857 0.04736744 0.0065898323
-0.028066278 0.13591488 -0.03327266 0.10361122 0.0387149 0.006541433 0.0518511 0.0041179634
0.00094126404 -0.07947289 -0.0345001 -0.018465623 -0.060401015 -0.0004452043 0.027840085 -0.08287834
0.10233657 -0.04238747 -0.011512351 -0.053597707 -0.023366489 -0.03677658 0.030106373 -0.04755911
0.0009593627 -0.023996264 0.06768951 0.06986086 -0.15292871 -0.009618679 0.04664821 0.0544431
0.12654534 0.008073658 0.024863644 0.06206215 0.035691954 -0.0058785747 0.08090351 -0.11296359
0.09619485 -0.04264696 0.08754527 0.019131504 0.09198845 -0.013186844 0.012369884 -0.03737293
0.113513455 0.07550672 0.06419739 0.06941208 0.13223313 0.0021169605 0.015743373 0.027511436
-0.021488762 0.0110223275 -0.060076125 0.08923155 -0.06075435 0.060980745 -0.0068694768 -0.060894623
0.057855684 -0.013123101 0.115484565 -0.018032877 0.06043153 0.032787204 0.04855112 -0.04696954
-0.10208722 0.018333677 -0.02875081 0.15314348 -0.03978925 0.017260836 -0.025178114 -0.020774264
-0.017567541 0.14682938 -0.005236727 -0.03418942 -0.059725508 -0.049781907 0.03822474 0.04845391
0.024384987 0.03929993 -0.059048794 -0.0038826265 -0.02428546 -0.099524036 -0.12166942 -0.016990952

fc2.weight f4 [84, 120]
00000000: 6d5d 8fbc c46e 003d 2cf7 8dbd 4cd4 fc3c
00000010: 1872 8d3c cfc2 a73d 0a6f 00bd 52cc 08bd
00000020: c43e 3dbc e69c 703d 4c6f 0fbd 959a a8bd
00000030: f259 9d3c f8a2 b93d 83f0 d63c 704d 8dbc
00000040: e8d5 553d 9225 88bd dd04 1abd 0f1a 8a3d
00000050: cbcb b6bc 3d9b b5bd 7d45 1b3d a73b b6bd
00000060: de97 08b9 27e7 e63c 7b8f 38bd 7301 273c
00000070: 023b 6cba 5389 babd 7a18 3d3c 0307 113d
00000080: 9c7b 90bc 0cd5 75bd 846d 9abd 8fea 6fbd
00000090: 8c27 aebd 5784 90bd b225 d5bc c9da 27bd
000000a0: 2879 79bd 971f 89bc f57e 17bd 1d6c 223c
000000b0: c25a 6d3d 3f8d 713d 8b6f 983d 37f5 d73c
000000c0: a524 bf3d cdcb b8bc 9b52 583d fe69 883d
000000d0: da69 c1bd 4013 ffbc 5b43 eabb c5e1 e13c
000000e0: 7227 55bd b439 a73d 7b07 50bd 91f8 30bd
000000f0: b6c5 94ba 31c7 7b3d 3eba 1cbd 82b2 cabd
00000100: 397d 4f3c 3abe 1d3d c05c 4d3b 0e4a 9c3d
00000110: 7d94 813c c004 98bd 222a b3bd 3f52 9d3d
00000120: 40e0 2b3d 3927 fcbc f4dc ce3c 580c a6bb
00000130: 10e8 153d f19d 6bbd 0108 7e3d 5e91 b33d
00000140: 61cd 563c 09a6 90bb a505 aa3d f1c5 8b3d
00000150: c8be b8bd 91be 92bd 6dc1 49bc 7f70 113c
00000160: 87e0 c73c 05c4 913d f4a8 9d3d 4797 813d
00000170: 4971 ccbd 655b 9b3d 8d6f 9dbd 30e5 7fbd
00000180: 9731 d0bd 7645 1d3d 5531 b93a 2790 26bc
00000190: b82c ecbc 78d9 063c 21c7 b93d 8ef3 883c
000001a0: 22e0 23bc 382d 093d 2e08 ec3d b6be a5bd
000001b0: 6bf6 d2bd 6e54 dfbc 2a97 52bd 8825 94bd
000001c0: 248e 96bd 5d63 35bd a40e 8d3d 96d3 aebd
000001d0: 2281 083d 7ab2 f63c c483 bb3d ab1c b63d
000001e0: 0c05 67bd 8c92 e6bc f16d 543d 3238 373d
000001f0: b1a1 86bd b770 b9bd 1826 993d 963c cd3d
00000200: 1b36 da3d e83b a5bc 1232 523c 5f67 dfbd
00000210: bcd8 8dbd 76af 203d e3cd b73d 9fc6 f93c
00000220: b03d af3d 9c3a b13c 1999 2c3d f787 423d
00000230: 425b 9d3d 5e34 d63b 4991 b5bd 9040 443d
00000240: bb5e 86bc d107 7d3c 313f 3cbb d5a7 a3bd
00000250: 6378 a13d 0e73 aabd f74c 07bd b7a1 143d
00000260: 52aa 003c ea4d ed3d 0c0c 043d c594 98bd
00000270: 315d 5a3d d2a2 343d e49d e5bc ec70 03bd
00000280: 5535 91bd da88 8f3d b39c 8bbd d679 a9bc
00000290: ea7f 80bd c6de ab3d 7bd0 32bd 160e 173b
000002a0: 794e aebd 0a35 0ebd ab42 a5bd 497e ad3d
000002b0: b2dd d7bd d8ea 37bd b641 82bd bf76 ab3d
000002c0: 7048 46bd 58e6 89bd 4330 0a3c 7227 c53d
000002d0: 0026 dc3d 97f1 a7bd a43c 31bd 274b 9cbc
000002e0: 57f8 afbd d7c6 25bc d63c 343d 0e30 2dbd
000002f0: f852 21bd 016d b3bd 77a2 93bd 6844 b8bd
00000300: 3bcb 90bc 1f73 6cbd 66dd 49bd b639 16bd
00000310: e5b0 de3b a1aa 66bd d6a7 6f3d 17ea 78bb
00000320: 0583 75bc dbae 0dbd 9bcc 88bc 7c13 57bc
00000330: 65ba 983d d795 e6bd 7c37 833d 3104 763d
00000340: 5bc4 88bd cc83 18bd 3d6c 86bd ed2a c1bd
00000350: 0afe 833d 6e01 86bc 226d d3bd 5059 353d
00000360: e120 06bb f976 6b3c 6cc1 953c 0838 8bbd
00000370: 7d56 c9bb 4df7 813d e840 d83d f912 b43d
00000380: bd25 0e3d 5452 21bd fd16 453d 6c1e 713d
00000390: 9a67 653d 6a15 88bd 0164 8e3d 7194 f23b
000003a0: 41a9 a2bd 70f6 40bb e175 b4bd 676e f33d
000003b0: e7a9 013d 7b6c 80bb 49bc 84bd 94a8 943d
000003c0: 77e6 053d 7639 213e ffdb 23bd 51a2 94bd
000003d0: 7cc8 e33d 51e9 fcbd 2fca 973d f7af ea3b
000003e0: 2d3e 163d 0bb5 fdbd 96f9 4abe 1bea e63d
000003f0: 1a2d 3d3d 326f d7bc f1a8 47bc f38c 113e
-0.017500604 0.031355634 -0.0693191 0.03086295 0.017266318 0.08191454 -0.031355895 -0.03339798
-0.011550609 0.05874338 -0.03501825 -0.08232609 0.019207928 0.09064287 0.026237732 -0.01724884
0.05220595 -0.06647791 -0.037602294 0.067432515 -0.022313973 -0.088675 0.037908066 -0.088980965
-0.00013026546 0.028186394 -0.04505871 0.010193217 -0.00090114784 -0.09108224 0.01154148 0.035407078
-0.017637067 -0.06001763 -0.0754042 -0.058573302 -0.08503637 -0.07056492 -0.026018951 -0.040980134
-0.06090656 -0.016738696 -0.03698631 0.0099134715 0.05794788 0.058972593 0.0744315 0.026362045
0.09333161 -0.022558117 0.052813154 0.066608414 -0.09444018 -0.031137109 -0.0071491427 0.027573476
-0.05203957 0.08165303 -0.050788384 -0.0432058 -0.0011350426 0.06146926 -0.038263552 -0.09897329
0.012664133 0.038511492 0.00313358 0.07631312 0.015817875 -0.07422781 -0.087482706 0.07681703
0.04196191 -0.030780422 0.025251843 -0.0050673895 0.036598265 -0.05752367 0.062019352 0.08767961
0.01311049 -0.004414324 0.08301858 0.06824864 -0.09020764 -0.07165254 -0.012314183 0.008876919
0.024399055 0.07117466 0.07698241 0.06327682 -0.09982545 0.075857915 -0.07687292 -0.06247443
-0.101657085 0.03839632 0.0014129082 -0.010166205 -0.028829917 0.0082305595 0.09071184 0.016717698
-0.010002168 0.03349039 0.11524998 -0.08093016 -0.10300907 -0.027261939 -0.051413693 -0.07233721
-0.0735133 -0.044284213 0.06887558 -0.085364506 0.033326276 0.030114401 0.09155992 0.08892187
-0.056401297 -0.02814605 0.05186266 0.044731326 -0.06573809 -0.09054702 0.07477969 0.100213215
0.10654851 -0.020170167 0.0128293205 -0.10908388 -0.069261044 0.039229833 0.08974817 0.030490218
0.08556688 0.021634392 0.042138193 0.047492947 0.07683422 0.0065370044 -0.088656016 0.047913134
-0.016402593 0.015443758 -0.0028724188 -0.07990996 0.0788429 -0.08322726 -0.033032384 0.036287036
0.0078531075 0.115871266 0.03223805 -0.074502505 0.05331153 0.04410059 -0.02802939 -0.032090113
-0.070902504 0.07008524 -0.068169974 -0.020687979 -0.06274398 0.083921 -0.043655854 0.0023049167
-0.08511061 -0.03471855 -0.080693565 0.084713526 -0.10540332 -0.0449017 -0.063601896 0.083722584
-0.048408926 -0.06733388 0.008434358 0.09626664 0.107494354 -0.082003765 -0.043270722 -0.019078804
-0.08592289 -0.010118208 0.04400333 -0.042282157 -0.039385766 -0.08761025 -0.07208722 -0.089974225
-0.017675033 -0.057726976 -0.049283408 -0.03667613 0.00679599 -0.05631507 0.05850967 -0.0037981325
-0.014984851 -0.034590583 -0.016699126 -0.013127204 0.07457427 -0.112590484 0.06407067 0.06006259
-0.06678077 -0.037235066 -0.065636136 -0.094320156 0.064449385 -0.016358104 -0.1032355 0.04427463
-0.0020466375 0.014371627 0.018280707 -0.067977965 -0.0061443434 0.06345997 0.10559255 0.08792681
0.03470396 -0.039385155 0.048117626 0.058866903 0.056007005 -0.066447094 0.06952668 0.0074029495
-0.07942439 -0.0029443763 -0.08811546 0.11886292 0.031656172 -0.003919182 -0.06481225 0.07258716
0.03269049 0.15744576 -0.040004726 -0.07257522 0.11122224 -0.12349189 0.0741161 0.00716209
0.03668039 -0.12388047 -0.19821772 0.11275121 0.04618559 -0.02629814 -0.012186275 0.14213924

fc2.bias f4 [84]
00000000: 2520 263d 5b6a 86ba 3a8e 3b3e c185 06bc
00000010: f6f9 dcbb dc1d 003e e45b 6d3e d615 5c3d
00000020: 8287 12be 7a11 5cbc 5f1c 77bd b041 85b8
00000030: b329 ac3d d986 3dbd 1e41 6bbe d9ab 86bd
00000040: 9a0c 113e 9b71 1bbe 7ac8 8a3d 67e2 8abd
00000050: d919 a23b cf91 9f3e 8845 453d 04bb 89bd
00000060: bc8f 7dbc a8de 55bc 2710 b9bd 731a d1bc
00000070: e578 0dbe 6393 443b b2b8 eebd 2736 cbbc
00000080: 7c9a a13d d2a4 59bd 3ee7 8d3c db2b acbd
00000090: 781d 013e e171 5b3d 6f03 c13d d309 f9bd
000000a0: 0b0a e13b 3a2d 193e 2819 02be effe 5e3d
000000b0: b08d 7c3d c170 503c 1789 29be acc3 afbd
000000c0: d722 de3c c1d0 19bb 88fd cbbd 2538 313e
000000d0: cabe 1ebd e3f8 be3e 6ddf 9cbd dbcb b33d
000000e0: 6518 d9bc 272c 453e 1e33 1bbd 78f4 893e
000000f0: 3d98 71bd 14ac 8cbd 2dd5 96bd 7292 003b
00000100: 9d46 39bd b935 5c3e c776 ac3c cfc0 f1bc
00000110: b56b b73d 3208 7a3e 088f ae3e 0725 f93c
00000120: c82f cbbd 0f55 0f3c 3631 763e a490 8dbd
00000130: 19e7 edbd ff7c 50bb 4ca0 dfbd 6b95 13bd
00000140: e89d 233e d176 ffbd e5ef 78bd 404a 90bd
0.040558 -0.0010255085 0.18315974 -0.0082106 -0.006743665 0.1251139 0.23179585 0.053731762
-0.14309505 -0.013431901 -0.06032979 -6.3541695e-05 0.08406391 -0.04627118 -0.22974059 -0.06575746
0.14164963 -0.15180056 0.06776519 -0.06781464 0.004946929 0.3116593 0.048162013 -0.067251235
-0.0154761635 -0.013053574 -0.09036284 -0.025525307 -0.13815649 0.0029995076 -0.116563216 -0.024806095
0.07890794 -0.0531357 0.017322179 -0.08406802 0.12608898 0.0535754 0.09424483 -0.12160077
0.0068676523 0.14958659 -0.12704909 0.054442342 0.06165856 0.012722195 -0.16556202 -0.08582243
0.027116222 -0.0023470374 -0.099604666 0.17306574 -0.03875617 0.3729926 -0.076598026 0.08779117
-0.02650089 0.19255124 -0.037890546 0.26944327 -0.058983076 -0.06868759 -0.07364879 0.0019618538
-0.045233358 0.21504869 0.021052731 -0.029510884 0.0895609 0.24417189 0.340935 0.030413164
-0.09921223 0.008748307 0.2404221 -0.06912354 -0.11616344 -0.0031812785 -0.10919246 -0.036031168
0.15978205 -0.12473834 -0.060775656 -0.07045412

fc3.weight f4 [10, 84]
00000000: 38f0 77bd c661 8e3d fd8b e8bd 45ac 76bd
00000010: 6c8d 2bbd 2555 e83c c439 afbc 39bc 123e
00000020: 9642 bf3d 969d a23e 4e9f 193e a217 6ebd
00000030: f913 0e3d 9e15 29bc 922b 833e 2a6f ba3e
00000040: 8fbe 2ebd 19ad 4f3e af19 2dbd 6375 f33d
00000050: 1b84 45be 4d01 c8be 102e b8bd 8e16 7d3d
00000060: 2e64 143e ce0d 743c cf85 813d 5a2d 47be
00000070: dfb2 a63e 0114 853c cc97 943e 86a3 aebd
00000080: aa37 3a3c 0729 6bbe 5c29 f13e 9ba8 c1bd
00000090: bda4 b2bd 5db6 9e3e 2c3a bdbd b174 a33c
000000a0: 6487 4cbe 7f47 96bd c9fc 993e f212 813d
000000b0: f72f 293e 6d32 54bd eea6 243e e014 a63d
000000c0: d23c 413d 551d 0bbe 272f 54be e0e5 3cbe
000000d0: 2927 a93d 96ba 963d fab4 1e3e 30aa 95be
000000e0: fd05 783e fa2b 0e3e 9ecd 16be f986 26bc
000000f0: f734 153d 722c 66bd ded8 4b3e 673f a9be
00000100: 46b8 6fbd 4a2a cdbc 12d4 1cbd 1b77 ecbd
00000110: 2b83 1dbe 1c7b 923d dbb4 c5bd 461c fbbc
00000120: b751 0cbe 7ed8 6bbe fbc7 86be 0b74 dbbd
00000130: 9822 d9bd 9c43 90be 8f4c fdbc d179 a9ba
00000140: 8821 22bd 08c9 e5bd 2fec 463e 5a4a 2ebd
00000150: 15b5 a53c b83e de3d 9709 a5be a49b 80be
00000160: 3147 afbd 6013 ad3c 312c 953e f4a6 40be
00000170: ecb2 ba3e 7f1f 3bbd 7593 2c3e 4dae ebbd
00000180: ad57 893e a8b3 3dbe 633b 073e 67c7 1c3d
00000190: 957b 21bd 0289 ce3d 7748 12be c68d 5dbe
000001a0: 9c47 c23d c4bb 9ebd a5a0 e23d d6c8 f2bd
000001b0: 200c 6d3e a14c 733e 4427 51be 41d7 90bd
000001c0: 772e 83be 77b0 803e 3a26 a1bc 2cf7 1abe
000001d0: d4aa 24be 5e99 e63d 393e 59be 4714 22bd
000001e0: 6c57 503d 04ae 3f3e 7a16 3c3d cfc5 193e
000001f0: 8abb 9e3e 5ad5 0bbd 82d6 54be 31a1 bcbd
00000200: a70e 4b3d 41f9 3fbe 5898 3a3d b259 4b3d
00000210: c638 98be fe4e 25be 1664 6e3e 2f6a f93d
00000220: 4ee0 a9bc b3cc 3ebe 6962 473e 1e6d d1bc
00000230: 7716 a9bd 103e 883d 43cf 2a3e af56 3b3e
00000240: 445d 203c a0d5 863d c6b9 2fbd ce5f d33c
00000250: a859 82bd 2ccd 83be d68c 3abd 2b9f 9a3e
00000260: c0fd 5abc a351 88be 5c67 f5be a890 b0bd
00000270: facf 5abc 1cf6 b8bd 674a 16be c1c4 293e
00000280: 70e9 633d 19d6 8a3e ab73 c23d 1cea e8bd
00000290: e6f3 33be 09f4 37be 9977 3f3e 070a f33d
000002a0: 243e e0bd a008 a43d d3b7 6e3d d5b6 1d3e
000002b0: 93e8 8b3c 40a0 e83d d4a6 c2bd 0946 803e
000002c0: 7abb d2bd 7ef0 babc 9acf 723e a03d 0dbe
000002d0: 3ffe a63d e42a cabd 2e4b 94be 5b7a 553e
000002e0: 725b 433e 9afe 1cbe dcbb 99bd df7d 863e
000002f0: fb36 b3be 7ea7 95bd f244 d33b eb9e 84bc
00000300: 9d95 a23d 92de 6a3e 002f 92be 0634 1c3e
00000310: b551 223e 8590 21be 181b b3bd a9bb 36bd
00000320: d730 513c cb0d 07be 9e96 d43d 95ec d73d
00000330: 5b7d a0bc 557a 0bbe e890 b2bd 8c86 0e3e
00000340: fb1c 99bc cdbb ca3e 377c b2bd 76aa 2b3e
00000350: a104 043e 9ca8 bebd ef06 82be d080 413c
00000360: 3729 813e 912a 543d 1341 1abe 83d2 383e
00000370: 0b7e 93be 5834 273e d42e 343e 2429 cb3d
00000380: e410 5fbd 0e77 a63d df41 ba3c c3fd 7fbe
00000390: dc00 b5bd a739 ab3c 5222 bd3d e03e 063c
000003a0: 2b05 303e edeb ba3b e498 a73c 92d0 17be
000003b0: 2d33 b43e 8bfd 1a3e 953c 9d3e 97da 903d
000003c0: 8329 fe3d 0e42 853e 29b0 c9bb b232 60be
000003d0: 7388 04be caaf 2f3e 907f 2abe 6641 88bd
000003e0: 2182 6a3e 697d 88be 8577 d0bd 967e c9bb
000003f0: a699 e6bd 24e4 56bd 5dd8 983e ec1b 603e
-0.060531825 0.069522426 -0.11354826 -0.060222883 -0.041882917 0.028360913 -0.02138985 0.14329614
0.09338872 0.31760854 0.15002176 -0.058128007 0.034687016 -0.010320095 0.2561918 0.36412936
-0.0426622 0.20280875 -0.042260822 0.11887624 -0.19288675 -0.39063492 -0.08993161 0.061789088
0.1449134 0.014895869 0.0632435 -0.19450894 0.32558343 0.01624489 0.29022062 -0.08527283
0.01136581 -0.2296487 0.47101867 -0.09455987 -0.087228276 0.30998507 -0.09239611 0.019953104
-0.19973522 -0.073378555 0.30075672 0.06302442 0.16522203 -0.051805902 0.16079304 0.0810945
0.047177143 -0.13585408 -0.20721112 -0.18447065 0.08259422 0.07359807 0.15498725 -0.29231405
0.24221034 0.13883963 -0.14726874 -0.010164016 0.036427464 -0.05619473 0.19906947 -0.33056185
-0.058525346 -0.025044579 -0.038288184 -0.11546155 -0.15382068 0.071523875 -0.09653636 -0.03065313
-0.13703047 -0.23031804 -0.26324448 -0.10715493 -0.10602301 -0.28176582 -0.030920295 -0.0012929981
-0.03958276 -0.11219984 0.19426034 -0.042551376 0.020227948 0.108518064 -0.3223388 -0.25118744
-0.085585006 0.021127403 0.29135278 -0.18813688 0.36464632 -0.045684334 0.16853125 -0.115078546
0.26824704 -0.18525565 0.13206248 0.038276102 -0.039424498 0.10084726 -0.14285456 -0.21636114
0.09486315 -0.07750657 0.11065797 -0.11854713 0.23149157 0.237597 -0.20425135 -0.070723064
-0.25621387 0.25134632 -0.019671548 -0.15133351 -0.16080791 0.11259721 -0.21215142 -0.03957012
0.050864622 0.18718725 0.045919873 0.15016864 0.31002456 -0.034139015 -0.20784953 -0.09210432
0.04957452 -0.18747427 0.045555443 0.049646087 -0.29730815 -0.16143414 0.23280367 0.12178456
-0.02073684 -0.18632774 0.19471134 -0.025564726 -0.08256238 0.066524625 0.16680627 0.18294786
0.009787861 0.065837145 -0.042901777 0.02580252 -0.06364757 -0.2574247 -0.045544468 0.3019956
-0.013366163 -0.26624784 -0.4793042 -0.08621341 -0.01335525 -0.09031317 -0.1467682 0.16578962
0.055642545 0.2711647 0.09494718 -0.11372778 -0.17573509 -0.17964186 0.18697967 0.11867147
-0.109493524 0.080094576 0.058280777 0.15401776 0.017078673 0.1135869 -0.09504476 0.25053433
-0.102896646 -0.022819754 0.23712006 -0.1379304 0.08153962 -0.09871462 -0.28963608 0.20847456
0.19077852 -0.15331498 -0.075065345 0.26267907 -0.35002884 -0.07307337 0.006447428 -0.01618906
0.07938693 0.22936466 -0.28551483 0.1525422 0.15851481 -0.15777786 -0.08745402 -0.04461256
0.012767992 -0.13188855 0.103802904 0.10543171 -0.019591024 -0.13620885 -0.08719045 0.13918513
-0.018690577 0.39596406 -0.08715098 0.16764244 0.12892391 -0.093095034 -0.25395915 0.011810496
0.25226757 0.051798407 -0.15063886 0.18049054 -0.288071 0.16328561 0.17595989 0.09919956
-0.054459468 0.08128177 0.022736488 -0.24999146 -0.088380545 0.020901514 0.09235062 0.0081937015
0.17189471 0.005704394 0.020458646 -0.14825657 0.35195294 0.15135781 0.30710283 0.07072943
0.124102615 0.26026958 -0.006155033 -0.21894339 -0.12942676 0.17156902 -0.16650224 -0.06653099
0.22901203 -0.2665818 -0.101790465 -0.0061491234 -0.11259775 -0.052463666 0.29852572 0.21885651

fc3.bias f4 [10]
00000000: 5017 bdbe 1755 9fbd 53b1 d53d d58b c43d
00000010: 7bd7 f73e 15ea bebe 1a72 d63e bc0b 30be
00000020: 953f b93d b67e 8bbe
-0.3693185 -0.077799015 0.104342125 0.09596983 0.48406586 -0.37287965 0.41883928 -0.17191976
0.090453304 -0.2724511
